data.pth (torch, 8151 bytes, 6 tensors)

l1.weight f4 [12, 78]
00000000: 019e b83d 3575 003f 4ef0 abbe 9f57 633e
00000010: 591b 6f3e d22f c3be 35db 393f 114e be3e
00000020: af99 883e 3c26 053f e9f0 89be 9526 cc3e
00000030: 88cb 103f fee4 0c3f 3f1a af3e e3fe 053e
00000040: 5c6a 943e 1978 0a3f 74ac 2cbd e8a4 0b3f
00000050: 0947 bbbd 3c84 9b3e a41f a73e 2332 0c3e
00000060: 295a 3d3e d657 f4be 4ecf 203e 6b63 6a3e
00000070: 0c00 0c3f f453 d63e 0a39 633d 3c0a 503e
00000080: f243 83bd d840 083f 7218 debd 88ca 103f
00000090: 15b4 93bd 55d3 433e 5e21 0c3d 5ca7 e6bd
000000a0: 85eb 5abe 4f76 9dbe 37e7 843e 3cdd 913e
000000b0: 98e1 973e 111b 5e3e a42d 0b3f a8ef 123f
000000c0: 473b c93e d979 3b3e 17c8 cf3d 6be2 cc3e
000000d0: bcd5 b53e 5996 3abe 960f efbe 706a c63e
000000e0: 9a3d df3e 6752 323f 0a94 fabc d1d2 0e3e
000000f0: 6288 cc3e 3b66 073e 1e40 443e cbc0 023e
00000100: 9488 5b3d 1346 5e3e add5 dcbd 0b43 973e
00000110: e218 883e b160 863e b5be 633e 7f61 2ebd
00000120: 5cc5 2cbe ac3c 3e3e 16eb 853d d855 cc3e
00000130: 5192 fdbd 16f2 89be ba97 db3e 1c07 a3be
00000140: ebce 0c3f 1794 a33d e866 d8bd d852 043f
00000150: 5c8c f13e d37b 92bd 3f65 76bd 94f0 c7be
00000160: 90e3 bd3e 7842 873e efeb c7be 79bc a8be
00000170: f4ef d8be 0c3d c7be 6c59 febe 4eed c7be
00000180: 0d4e cc3d 90eb 46bf 5909 523f 878a 8d3d
00000190: 796b 5abe cd5d 253d e92b e83d 07a7 67bf
000001a0: 23ea 6abd 3f8d d1be 8fea 42bd 524f 08bc
000001b0: d083 f3bd 5edd a2be 00dd 773e 70f0 c7be
000001c0: 51d3 943e cce7 d3be 81b3 ad3e 70d2 b73c
000001d0: b1e7 e7bd 8e2b b33e 8caf 683e 4101 123e
000001e0: c00c 923e 0e48 8f3b 6da6 803d c1fc 8dbe
000001f0: 056b 363e bf79 e7be b364 833e d18d 5b3d
00000200: 686d f6bc 0426 9e3c 6c11 9e3c 5f64 643f
00000210: 1809 363e d859 1bbd 2204 9d3d 3733 f6be
00000220: bada dcbd bf60 5a3e 4d1d 74bd d68a a2bd
00000230: a7cd acbd b8e0 043c dbd6 2cbd 4b49 a23e
00000240: 95f7 c7be 0f74 2ebd ffa6 4a3d 898f 8b3d
00000250: fa12 e6bd 3d2b 1e3f 322a 1a3f af9a 8bbd
00000260: 230a e8bd aed7 acbd 8d8a 373f 282e 213f
00000270: a7f1 d63e 049a 9bbe 82c5 6d3e 77dd a0bb
00000280: 6985 ba3e 13e8 a03e 82ea 4d3f 0b02 dd3e
00000290: e2a8 b13d 4e6b d9be 0fc1 cb3e 5fdf eb3d
000002a0: 13e7 d8be 4817 dbbe 959c cebe 6fd0 1e3f
000002b0: 4cbb 673e a85f d9be c840 373e 4afe 213f
000002c0: a270 48bf ad60 1dbe 2c5d 053f 7f58 8b3d
000002d0: 6182 5e3d 95ef 4bbf 588e 443c 7133 ed3d
000002e0: 2ec3 323d e052 303e 3c02 703e cacf e83e
000002f0: 7af2 653e 7365 d9be 03b7 c13e 47db 04bf
00000300: 6037 d93e ffa5 2c3d 2745 4dbe af91 aa3e
00000310: 490d ae3e 9d62 b63e ac5f a23d 37b1 883d
00000320: 2614 b03e d9a7 3bbe 4141 e03c e6b5 9fbe
00000330: 03dd ac3d 5c89 b6bc a945 c03e 6d04 b23d
00000340: 553f 20bd 1837 413f 7732 5f3e 94af b7bd
00000350: 61bd 953d e17c ebbe d979 b23e 10cf 8c3d
00000360: 823a 473d b021 29bd 1593 e93d d179 973d
00000370: 5578 883e 3d29 113d abd3 d8be 01c8 60bb
00000380: ae45 f53e 3084 bc3a 22aa 023e c2d6 953e
00000390: 5e36 3c3f cb90 0d3e f4e1 4abe 1cee b83c
000003a0: 35dc ec3e a91a d93e 658e 0b3d 7321 db3d
000003b0: dd3a ddbd 8265 423c 8d9e 9f3e 7a7f 2e3e
000003c0: cc16 38bf 1fb3 cd3e 77e8 553d 4a6b a2be
000003d0: 8987 e03e 3d72 ee3e d553 a2be 9d9b 45bf
000003e0: 8d87 4dbf 701c df3e 5677 b83e 4b6d a2be
000003f0: af4b 18be 2728 763f dac4 003f 3a17 57be
0.09014512 0.50178844 -0.33581775 0.22201394 0.23350276 -0.38122422 0.7260011 0.37168935
0.2667975 0.52011466 -0.26941612 0.39873186 0.56560564 0.55036914 0.34199712 0.13085513
0.28987396 0.54089504 -0.04215665 0.545485 -0.09144408 0.30374324 0.32641327 0.13691
0.18491425 -0.47723264 0.1570408 0.22889487 0.5468757 0.41860926 0.05547432 0.20316404
-0.06409444 0.53223944 -0.10844506 0.5655904 -0.07212082 0.19123586 0.03421151 -0.1126239
-0.21378906 -0.30754325 0.25957653 0.284891 0.29664302 0.21690013 0.5436652 0.57396936
0.39303038 0.183082 0.10145586 0.40016493 0.3551463 -0.18221416 -0.4669158 0.3875308
0.43601686 0.69656986 -0.030588169 0.13947608 0.39947802 0.13222592 0.19165084 0.12768857
0.053597048 0.21706419 -0.10782943 0.29543337 0.26581484 0.26245645 0.22240718 -0.04257345
-0.16872162 0.18577832 0.0653898 0.39909244 -0.12381423 -0.2694251 0.42889196 -0.31841362
0.5500323 0.0798723 -0.10566503 0.5168891 0.47177398 -0.07152524 -0.06015515 -0.39050734
0.3708768 0.264179 -0.3904719 -0.32956293 -0.4237057 -0.38913763 -0.49677598 -0.39048237
0.099758245 -0.7770319 0.82045513 0.069111876 -0.2133006 0.04037266 0.113365 -0.9048924
-0.057352196 -0.40928075 -0.047586974 -0.008319693 -0.118903756 -0.31809515 0.24205399 -0.39050627
0.29067472 -0.41387784 0.33926013 0.022439212 -0.113234885 0.34994167 0.22723216 0.14258291
0.28525352 0.0043726033 0.06281743 -0.27731898 0.17814262 -0.45210072 0.25662765 0.053602044
-0.030081466 0.019305237 0.019295417 0.89215654 0.17776906 -0.03792748 0.07666804 -0.4808595
-0.10783906 0.21325968 -0.059598256 -0.07936637 -0.084376626 0.008110218 -0.04219709 0.31696543
-0.39056078 -0.04259115 0.049475666 0.068144865 -0.11234088 0.61784726 0.60220635 -0.06816613
-0.113300584 -0.08439575 0.71695787 0.62961054 0.4198124 -0.30390942 0.23219875 -0.004909213
0.3642991 0.3142706 0.80435956 0.4316562 0.0867479 -0.4246468 0.3979573 0.11517214
-0.42363796 -0.427912 -0.40353838 0.62036794 0.22630042 -0.42455792 0.17895806 0.6327864
-0.78296864 -0.1536891 0.52095294 0.06803989 0.054323558 -0.7966245 0.011996828 0.11582077
0.04364317 0.17219114 0.23438352 0.4547103 0.22455779 -0.42460212 0.3783494 -0.5189709
0.4242506 0.042150494 -0.20045911 0.33314273 0.3399451 0.3562211 0.07928404 0.06674426
0.34390372 -0.18325748 0.027374865 -0.31193465 0.08440592 -0.022282295 0.37553146 0.086922504
-0.039122898 0.7547469 0.21796595 -0.08969036 0.07311512 -0.45993713 0.34858587 0.068754315
0.04863978 -0.041291893 0.11405007 0.073962815 0.26654306 0.03543972 -0.4234899 -0.00342989
0.47904724 0.0014382657 0.12760213 0.2926541 0.7352046 0.13824765 -0.19812757 0.022574477
0.46261755 0.42403153 0.034071345 0.10699739 -0.10802243 0.011865022 0.31175652 0.17040816
-0.71909785 0.4017572 0.05222365 -0.3172248 0.43853405 0.46571532 -0.31704584 -0.7719057
-0.8028496 0.43576384 0.36028546 -0.3172401 -0.14872621 0.9615502 0.5030037 -0.21004954

l1.bias f4 [12]
00000000: c833 4e3f 26ee c73e 5760 d93e 626e a23e
00000010: f878 f13e e89f 173f a263 d73e bcdc 713e
00000020: daf8 5d3f 161a 423f 610b b93e 4e78 273f
0.8054776 0.3904888 0.42456314 0.3172484 0.47162604 0.5922837 0.420682 0.2361936
0.8670784 0.75821054 0.36141494 0.65417945

l2.weight f4 [12, 12]
00000000: 3a39 ec3e 76dc 32bf 8a86 b43e 2947 ac3d
00000010: 01e9 b03e 3744 16bf 4994 143f abc6 863f
00000020: 1860 023f b0f5 1f3f 80f1 8d3e 316a febe
00000030: 51b0 6c3e 4538 d43e 06dc e53e 130a b8be
00000040: 12da 363e 11ce ee3f 316e a93f 9326 26bf
00000050: 73aa 783f 7667 383f caf3 29bf 59c7 9dbd
00000060: 0f5d 083f 191e 8f3e 1305 ba39 343b 4cbf
00000070: 5ce7 1cbf 1ebd 103f de5c 9bbe 63a8 603f
00000080: 1f90 8e3f 9382 9b3f 971f 61be 62dc 89bf
00000090: a490 6a3f 5e21 9cbf b56e 0e3d 5dc2 9e3d
000000a0: bf76 a23e ac65 07bf 21e8 93bf a12c 653f
000000b0: cb4a 873e ebe9 423e 2104 a63d fe6f 923f
000000c0: 8ee6 ee3e 170f 1a3f 6ed7 81bf af4b 1b3f
000000d0: ca13 a43f e73f 193e 1411 673f 0c52 ba3e
000000e0: 30b1 19bf 29e2 cd3e eb8b 563f f0a3 0ebf
000000f0: 1c1a 453f e0d8 4ebd ecb2 6abe c3af 76bf
00000100: de8e debe a888 413f 429b cfbe a424 ca3e
00000110: d8ec 943f ed7d 883f 2e7b b5be 230e 5abf
00000120: 341b 893e 1643 13bf a99a 73bf db0d 52bf
00000130: 79f5 ac3d 5be9 30bf f3c6 2b3e 1603 12bd
00000140: 65a0 0f3f 1a51 e03e efe3 dc3e b102 3440
00000150: 48e8 863f 4d0a 2fbf 661b 2dbf 931d 06bf
00000160: 07da 4f3f 2b50 f43e 28c8 8fbf 30ab 0fbf
00000170: 1c5b d63e 4640 9fbe f0c0 83bf 6259 66be
00000180: 1bcf a63e e85f 323f aec1 4f3f cf9b 9b3f
00000190: 2f58 35bf fed1 f7be 0b84 e3be 4341 613f
000001a0: 4459 01be 9dd9 863f db12 2dbf 7273 0a3f
000001b0: 1bf6 563e 36fe 12bf 128f b8be 5950 88bd
000001c0: dbd2 b93d e200 5abe aea7 413e 409d 97bf
000001d0: 9190 5b3f 8e66 4d3d 1ab4 6f3f c216 253f
000001e0: cfa2 09bd 7ec8 e03d 6c8e 8bbc 0951 a5be
000001f0: 6eb7 38be c4e6 243e 4a4c ea3d 5843 b9bd
00000200: e4a2 fa3a 2bf0 0cbe c492 9cbe 562d a43d
00000210: 9518 8c3f c58e 51bf 3af9 a9bf dd5e 433e
00000220: f440 653f 7055 a63d 0442 6fbe 4c6c c43e
00000230: 368e c43e 0e29 383e 6e0c 903f 8ea7 5dbe
0.4613741 -0.69867647 0.35258895 0.0841201 0.34552768 -0.5869784 0.58038765 1.0529379
0.5092788 0.62484264 0.27723312 -0.49690393 0.23114134 0.4144918 0.44894427 -0.35945186
0.17856625 1.8656636 1.3236753 -0.6490261 0.97135085 0.7203287 -0.6638762 -0.07704038
0.53266996 0.2795265 0.00035480465 -0.79777837 -0.61290526 0.5653857 -0.3034429 0.8775694
1.1137732 1.2149223 -0.21984707 -1.077038 0.91626954 -1.2197683 0.034773547 0.077519156
0.3173122 -0.52889514 -1.1555215 0.89521223 0.2642425 0.19034545 0.08106256 1.1440427
0.46660274 0.60179275 -1.0143869 0.6066236 1.2818539 0.14965783 0.90260434 0.36390722
-0.6003599 0.4021161 0.8380725 -0.557189 0.76992965 -0.050499797 -0.22919816 -0.9636194
-0.43468374 0.75599146 -0.4054814 0.3948108 1.1634779 1.066343 -0.3544554 -0.8517782
0.26778567 -0.5752424 -0.9515787 -0.8205239 0.08445258 -0.6910607 0.16775112 -0.035647474
0.5610412 0.43811876 0.4314265 2.8126643 1.0539637 -0.6837509 -0.6761993 -0.52388877
0.8119206 0.47717413 -1.1232958 -0.56120586 0.41866386 -0.31103724 -1.0293255 -0.22495034
0.32579884 0.6967759 0.81154907 1.2156924 -0.7083768 -0.484024 -0.44436678 0.87990206
-0.12631708 1.053516 -0.67606896 0.54082406 0.2099232 -0.57419145 -0.36046654 -0.0665595
0.090734206 -0.212894 0.18911621 -1.1844864 0.85767466 0.050146632 0.9363419 0.6448785
-0.033602532 0.10975741 -0.017035685 -0.32288387 -0.18038723 0.16103655 0.11440332 -0.09046048
0.0019122032 -0.13763492 -0.30580723 0.0801646 1.0945002 -0.81858474 -1.3279183 0.19079156
0.89552236 0.08121765 -0.23365027 0.38363874 0.38389748 0.17984411 1.1253793 -0.21645948

l2.bias f4 [12]
00000000: 75b1 06bf 32b5 fe3e a0b6 8a3e 9094 253f
00000010: e96f bdbe c3ec 993e 97e3 cebd 1b5f da3e
00000020: 5c1c a93e 5e9f 913f 2b56 91be 0a25 833d
-0.5261453 0.49747616 0.27092457 0.64679813 -0.36999443 0.30063447 -0.10102003 0.42650685
0.3302945 1.137676 -0.28386053 0.06403549

l3.weight f4 [11, 12]
00000000: 62d1 b63e 92a4 c3bf ee8e 40bf 5b0c 383f
00000010: da03 05bf c4df 35bf dc37 d63d 5b26 3dbf
00000020: ff1a c73e 73a8 21bf 465c 59bd 1ddf 3ebf
00000030: f2f3 a3bf 424f 943f fe5c 94bf 7422 2abf
00000040: f110 073f d611 8bbf 3c27 91be 1eab 8abf
00000050: a2e6 85bf 4ba8 f43d 2db8 3cbe 119f c1bf
00000060: 9218 f53e 70e9 88be 5176 eb3e 5275 98be
00000070: 0222 66be 3369 ab3e 1859 85bf f5b1 9dbf
00000080: 69f4 11bf 43da 9ebf 6e74 46be c5cc 6abd
00000090: b185 40be 951b 99bf 6f2a a43e 940c 043e
000000a0: 33a6 30be 77e1 b23e ab92 d43e a214 d2bf
000000b0: 62ab 47bf 2559 06bf 01a5 86be 3a42 193e
000000c0: f61d ea3e d3cd c4bf ddbb 15be 1f06 063f
000000d0: 6605 3c3e 33f6 e3be 4676 ccbf 901d 66bf
000000e0: 6d09 6cbe cd59 67be 2d18 fa3c 093e a63e
000000f0: eb42 ddbd f464 5fbe 7fe3 d3be 8f37 71bf
00000100: cc83 1d3f 86a6 ccbe c51c dabf b7b7 86bf
00000110: 9ce3 98bf ff21 e2bd f965 683e ab01 e03e
00000120: 5469 8c3e c5c9 6fbf ccd2 77bf 12a1 2abf
00000130: c4a3 043e 802c 2dbf 2e3e bf3e 005c 68bf
00000140: 0031 87bf 4eb2 153f b83c 78be c336 8a3e
00000150: 4abe 52bf 165e d5bd 04a9 5f3d 2a2e 2b3f
00000160: 7def 59bf 3b7b 023f 3f4e 54bf 1941 823f
00000170: b24b c7bf d03a 8e3e cc52 953d 6052 af3e
00000180: d328 12be e7df ef3e 2e9b 813f 0528 abbf
00000190: b2c5 c5bf 3c5d 6d3f 81e6 08c0 a14c a0bf
000001a0: 666f 1cbf c80c 013f a46d 50be 8d9a bcbf
000001b0: 4256 7bbf 3fc7 35be 15f2 bcbd 8db6 89bf
000001c0: 0db4 27bf 989e 3cbf d1f9 ddbf 46cd ebbe
000001d0: 59ad 993f 7aa0 59bf a30d 0bbe f6c3 afbe
000001e0: 10b9 bdbf ef0b afbf 90f0 a3be dfda 663f
000001f0: 5baf cdbf f653 7bbf 39f9 5d3f e67c 04c0
00000200: 98db 66bf 15a8 8c3f fbf6 f33d 5d11 133f
0.3570662 -1.5284598 -0.75218093 0.7189385 -0.51959 -0.71044564 0.10459873 -0.7388665
0.38887784 -0.6314766 -0.053066514 -0.74559194 -1.2808821 1.1586688 -1.1590879 -0.6645882
0.52760226 -1.0864818 -0.28350246 -1.0833471 -1.0461009 0.11946162 -0.18429632 -1.5126668
0.47870308 -0.267406 0.45988706 -0.29777008 -0.2247391 0.33478698 -1.0417814 -1.2319933
-0.57013565 -1.2410358 -0.19380352 -0.05732419 -0.18800999 -1.1961542 0.32063624 0.12895423
-0.172509 0.3493764 0.4151815 -1.6412547 -0.77995884 -0.52479774 -0.26297763 0.1496667
0.45725983 -1.5375313 -0.14622445 0.5235309 0.18361434 -0.44523773 -1.5973594 -0.8988886
-0.2305047 -0.2259285 0.030529106 0.32469204 -0.10803779 -0.21815854 -0.41384503 -0.942254
0.6152923 -0.39970797 -1.704003 -1.0524815 -1.1944461 -0.110416405 0.2269515 0.43751273
0.2742411 -0.9366725 -0.96806026 -0.66652024 0.12953097 -0.67646027 0.37352127 -0.9076538
-1.0561829 0.58475196 -0.24241912 0.26994905 -0.8232161 -0.10418336 0.054604545 0.66867316
-0.85131055 0.50969285 -0.82931894 1.0176116 -1.5569975 0.27779245 0.07291183 0.34242535
-0.14273386 0.4685051 1.0125482 -1.3371588 -1.5450957 0.9272039 -2.1390688 -1.2523385
-0.6110748 0.5041013 -0.20354325 -1.4734665 -0.98178494 -0.17751788 -0.09225861 -1.0758835
-0.6550911 -0.73679495 -1.7341863 -0.4605505 1.2006027 -0.8501049 -0.13579421 -0.34329194
-1.4822102 -1.3675517 -0.32019472 0.9017772 -1.6069139 -0.9817499 0.8670841 -2.0701232
-0.90178823 1.0988795 0.11912342 0.5744837

l3.bias f4 [11]
00000000: 32b6 abbe 3c5e c73e a0cb e7be ddd4 d3be
00000010: 564e 8abe bb21 46be 4134 40be c7fd 8abe
00000020: f716 2f3e c375 183f 6253 c83e
-0.33537441 0.38939083 -0.4527254 -0.4137334 -0.2701289 -0.19348805 -0.18769933 -0.27146742
0.17098604 0.5955469 0.39126116
